…
[INFO] Register count_upsample() for <class 'torch.nn.modules.upsampling.Upsample'>.
[INFO] Register zero_ops() for <class 'torch.nn.modules.activation.ReLU'>.
[INFO] Register count_convNd() for <class 'torch.nn.modules.conv.Conv2d'>.
[INFO] Register count_normalization() for <class 'torch.nn.modules.batchnorm.BatchNorm2d'>.
Pruned FLOPs: 718.332M
Pruned Params: 642.981K
FLOPs reduction percentage: 63.77%
Params reduction percentage: 91.81%
=====Pruned Model: =====
UNet(
  (pool): MaxPool2d(kernel_size=2, stride=2, padding=0, dilation=1, ceil_mode=False)
  (up): Upsample(scale_factor=2.0, mode='bilinear')
  (conv0_0): VGGBlock(
    (relu): ReLU(inplace=True)
    (conv1): Conv2d(3, 32, kernel_size=(3, 3), stride=(1, 1), padding=(1, 1))
    (bn1): BatchNorm2d(32, eps=1e-05, momentum=0.1, affine=True, track_running_stats=True)
    (conv2): Conv2d(32, 32, kernel_size=(3, 3), stride=(1, 1), padding=(1, 1))
    (bn2): BatchNorm2d(32, eps=1e-05, momentum=0.1, affine=True, track_running_stats=True)
  )
  (conv1_0): VGGBlock(
    (relu): ReLU(inplace=True)
    (conv1): Conv2d(32, 63, kernel_size=(3, 3), stride=(1, 1), padding=(1, 1))
    (bn1): BatchNorm2d(63, eps=1e-05, momentum=0.1, affine=True, track_running_stats=True)
    (conv2): Conv2d(63, 54, kernel_size=(3, 3), stride=(1, 1), padding=(1, 1))
    (bn2): BatchNorm2d(54, eps=1e-05, momentum=0.1, affine=True, track_running_stats=True)
  )
  (conv2_0): VGGBlock(
    (relu): ReLU(inplace=True)
    (conv1): Conv2d(54, 26, kernel_size=(3, 3), stride=(1, 1), padding=(1, 1))
    (bn1): BatchNorm2d(26, eps=1e-05, momentum=0.1, affine=True, track_running_stats=True)
    (conv2): Conv2d(26, 53, kernel_size=(3, 3), stride=(1, 1), padding=(1, 1))
    (bn2): BatchNorm2d(53, eps=1e-05, momentum=0.1, affine=True, track_running_stats=True)
  )
  (conv3_0): VGGBlock(
    (relu): ReLU(inplace=True)
    (conv1): Conv2d(53, 52, kernel_size=(3, 3), stride=(1, 1), padding=(1, 1))
    (bn1): BatchNorm2d(52, eps=1e-05, momentum=0.1, affine=True, track_running_stats=True)
    (conv2): Conv2d(52, 101, kernel_size=(3, 3), stride=(1, 1), padding=(1, 1))
    (bn2): BatchNorm2d(101, eps=1e-05, momentum=0.1, affine=True, track_running_stats=True)
  )
  (conv4_0): VGGBlock(
    (relu): ReLU(inplace=True)
    (conv1): Conv2d(101, 238, kernel_size=(3, 3), stride=(1, 1), padding=(1, 1))
    (bn1): BatchNorm2d(238, eps=1e-05, momentum=0.1, affine=True, track_running_stats=True)
    (conv2): Conv2d(238, 64, kernel_size=(3, 3), stride=(1, 1), padding=(1, 1))
    (bn2): BatchNorm2d(64, eps=1e-05, momentum=0.1, affine=True, track_running_stats=True)
  )
  (conv3_1): VGGBlock(
    (relu): ReLU(inplace=True)
    (conv1): Conv2d(165, 12, kernel_size=(3, 3), stride=(1, 1), padding=(1, 1))
    (bn1): BatchNorm2d(12, eps=1e-05, momentum=0.1, affine=True, track_running_stats=True)
    (conv2): Conv2d(12, 32, kernel_size=(3, 3), stride=(1, 1), padding=(1, 1))
    (bn2): BatchNorm2d(32, eps=1e-05, momentum=0.1, affine=True, track_running_stats=True)
  )
  (conv2_2): VGGBlock(
    (relu): ReLU(inplace=True)
    (conv1): Conv2d(85, 16, kernel_size=(3, 3), stride=(1, 1), padding=(1, 1))
    (bn1): BatchNorm2d(16, eps=1e-05, momentum=0.1, affine=True, track_running_stats=True)
    (conv2): Conv2d(16, 20, kernel_size=(3, 3), stride=(1, 1), padding=(1, 1))
    (bn2): BatchNorm2d(20, eps=1e-05, momentum=0.1, affine=True, track_running_stats=True)
  )
  (conv1_3): VGGBlock(
    (relu): ReLU(inplace=True)
    (conv1): Conv2d(74, 53, kernel_size=(3, 3), stride=(1, 1), padding=(1, 1))
    (bn1): BatchNorm2d(53, eps=1e-05, momentum=0.1, affine=True, track_running_stats=True)
    (conv2): Conv2d(53, 53, kernel_size=(3, 3), stride=(1, 1), padding=(1, 1))
    (bn2): BatchNorm2d(53, eps=1e-05, momentum=0.1, affine=True, track_running_stats=True)
  )
  (conv0_4): VGGBlock(
    (relu): ReLU(inplace=True)
    (conv1): Conv2d(85, 32, kernel_size=(3, 3), stride=(1, 1), padding=(1, 1))
    (bn1): BatchNorm2d(32, eps=1e-05, momentum=0.1, affine=True, track_running_stats=True)
    (conv2): Conv2d(32, 32, kernel_size=(3, 3), stride=(1, 1), padding=(1, 1))
    (bn2): BatchNorm2d(32, eps=1e-05, momentum=0.1, affine=True, track_running_stats=True)
  )
  (final): Conv2d(32, 1, kernel_size=(1, 1), stride=(1, 1))
)
Epoch [0/400]
loss 0.1148 - iou 0.8781 - val_loss 0.5875 - val_iou 0.4812
=> saved best model
Epoch [1/400]
loss 0.1104 - iou 0.8840 - val_loss 0.2510 - val_iou 0.7333
=> saved best model
Epoch [2/400]
loss 0.1034 - iou 0.8906 - val_loss 0.4149 - val_iou 0.6744
Epoch [3/400]
loss 0.1099 - iou 0.8805 - val_loss 0.2377 - val_iou 0.7570
=> saved best model
Epoch [4/400]
…
