…
[INFO] Register count_upsample() for <class 'torch.nn.modules.upsampling.Upsample'>.
[INFO] Register zero_ops() for <class 'torch.nn.modules.activation.ReLU'>.
[INFO] Register count_convNd() for <class 'torch.nn.modules.conv.Conv2d'>.
[INFO] Register count_normalization() for <class 'torch.nn.modules.batchnorm.BatchNorm2d'>.
Pruned FLOPs: 770.148M
Pruned Params: 176.588K
FLOPs reduction percentage: 84.31%
Params reduction percentage: 98.07%
=====Pruned Model: =====
NestedUNet(
  (pool): MaxPool2d(kernel_size=2, stride=2, padding=0, dilation=1, ceil_mode=False)
  (up): Upsample(scale_factor=2.0, mode='bilinear')
  (conv0_0): VGGBlock(
    (relu): ReLU(inplace=True)
    (conv1): Conv2d(3, 30, kernel_size=(3, 3), stride=(1, 1), padding=(1, 1))
    (bn1): BatchNorm2d(30, eps=1e-05, momentum=0.1, affine=True, track_running_stats=True)
    (conv2): Conv2d(30, 15, kernel_size=(3, 3), stride=(1, 1), padding=(1, 1))
    (bn2): BatchNorm2d(15, eps=1e-05, momentum=0.1, affine=True, track_running_stats=True)
  )
  (conv1_0): VGGBlock(
    (relu): ReLU(inplace=True)
    (conv1): Conv2d(15, 43, kernel_size=(3, 3), stride=(1, 1), padding=(1, 1))
    (bn1): BatchNorm2d(43, eps=1e-05, momentum=0.1, affine=True, track_running_stats=True)
    (conv2): Conv2d(43, 30, kernel_size=(3, 3), stride=(1, 1), padding=(1, 1))
    (bn2): BatchNorm2d(30, eps=1e-05, momentum=0.1, affine=True, track_running_stats=True)
  )
  (conv2_0): VGGBlock(
    (relu): ReLU(inplace=True)
    (conv1): Conv2d(30, 19, kernel_size=(3, 3), stride=(1, 1), padding=(1, 1))
    (bn1): BatchNorm2d(19, eps=1e-05, momentum=0.1, affine=True, track_running_stats=True)
    (conv2): Conv2d(19, 17, kernel_size=(3, 3), stride=(1, 1), padding=(1, 1))
    (bn2): BatchNorm2d(17, eps=1e-05, momentum=0.1, affine=True, track_running_stats=True)
  )
  (conv3_0): VGGBlock(
    (relu): ReLU(inplace=True)
    (conv1): Conv2d(17, 4, kernel_size=(3, 3), stride=(1, 1), padding=(1, 1))
    (bn1): BatchNorm2d(4, eps=1e-05, momentum=0.1, affine=True, track_running_stats=True)
    (conv2): Conv2d(4, 5, kernel_size=(3, 3), stride=(1, 1), padding=(1, 1))
    (bn2): BatchNorm2d(5, eps=1e-05, momentum=0.1, affine=True, track_running_stats=True)
  )
  (conv4_0): VGGBlock(
    (relu): ReLU(inplace=True)
    (conv1): Conv2d(5, 512, kernel_size=(3, 3), stride=(1, 1), padding=(1, 1))
    (bn1): BatchNorm2d(512, eps=1e-05, momentum=0.1, affine=True, track_running_stats=True)
    (conv2): Conv2d(512, 2, kernel_size=(3, 3), stride=(1, 1), padding=(1, 1))
    (bn2): BatchNorm2d(2, eps=1e-05, momentum=0.1, affine=True, track_running_stats=True)
  )
  (conv0_1): VGGBlock(
    (relu): ReLU(inplace=True)
    (conv1): Conv2d(45, 30, kernel_size=(3, 3), stride=(1, 1), padding=(1, 1))
    (bn1): BatchNorm2d(30, eps=1e-05, momentum=0.1, affine=True, track_running_stats=True)
    (conv2): Conv2d(30, 15, kernel_size=(3, 3), stride=(1, 1), padding=(1, 1))
    (bn2): BatchNorm2d(15, eps=1e-05, momentum=0.1, affine=True, track_running_stats=True)
  )
  (conv1_1): VGGBlock(
    (relu): ReLU(inplace=True)
    (conv1): Conv2d(47, 3, kernel_size=(3, 3), stride=(1, 1), padding=(1, 1))
    (bn1): BatchNorm2d(3, eps=1e-05, momentum=0.1, affine=True, track_running_stats=True)
    (conv2): Conv2d(3, 9, kernel_size=(3, 3), stride=(1, 1), padding=(1, 1))
    (bn2): BatchNorm2d(9, eps=1e-05, momentum=0.1, affine=True, track_running_stats=True)
  )
  (conv2_1): VGGBlock(
    (relu): ReLU(inplace=True)
    (conv1): Conv2d(22, 128, kernel_size=(3, 3), stride=(1, 1), padding=(1, 1))
    (bn1): BatchNorm2d(128, eps=1e-05, momentum=0.1, affine=True, track_running_stats=True)
    (conv2): Conv2d(128, 8, kernel_size=(3, 3), stride=(1, 1), padding=(1, 1))
    (bn2): BatchNorm2d(8, eps=1e-05, momentum=0.1, affine=True, track_running_stats=True)
  )
  (conv3_1): VGGBlock(
    (relu): ReLU(inplace=True)
    (conv1): Conv2d(7, 5, kernel_size=(3, 3), stride=(1, 1), padding=(1, 1))
    (bn1): BatchNorm2d(5, eps=1e-05, momentum=0.1, affine=True, track_running_stats=True)
    (conv2): Conv2d(5, 2, kernel_size=(3, 3), stride=(1, 1), padding=(1, 1))
    (bn2): BatchNorm2d(2, eps=1e-05, momentum=0.1, affine=True, track_running_stats=True)
  )
  (conv0_2): VGGBlock(
    (relu): ReLU(inplace=True)
    (conv1): Conv2d(39, 24, kernel_size=(3, 3), stride=(1, 1), padding=(1, 1))
    (bn1): BatchNorm2d(24, eps=1e-05, momentum=0.1, affine=True, track_running_stats=True)
    (conv2): Conv2d(24, 15, kernel_size=(3, 3), stride=(1, 1), padding=(1, 1))
    (bn2): BatchNorm2d(15, eps=1e-05, momentum=0.1, affine=True, track_running_stats=True)
  )
  (conv1_2): VGGBlock(
    (relu): ReLU(inplace=True)
    (conv1): Conv2d(47, 1, kernel_size=(3, 3), stride=(1, 1), padding=(1, 1))
    (bn1): BatchNorm2d(1, eps=1e-05, momentum=0.1, affine=True, track_running_stats=True)
    (conv2): Conv2d(1, 1, kernel_size=(3, 3), stride=(1, 1), padding=(1, 1))
    (bn2): BatchNorm2d(1, eps=1e-05, momentum=0.1, affine=True, track_running_stats=True)
  )
  (conv2_2): VGGBlock(
    (relu): ReLU(inplace=True)
    (conv1): Conv2d(27, 4, kernel_size=(3, 3), stride=(1, 1), padding=(1, 1))
    (bn1): BatchNorm2d(4, eps=1e-05, momentum=0.1, affine=True, track_running_stats=True)
    (conv2): Conv2d(4, 10, kernel_size=(3, 3), stride=(1, 1), padding=(1, 1))
    (bn2): BatchNorm2d(10, eps=1e-05, momentum=0.1, affine=True, track_running_stats=True)
  )
  (conv0_3): VGGBlock(
    (relu): ReLU(inplace=True)
    (conv1): Conv2d(46, 23, kernel_size=(3, 3), stride=(1, 1), padding=(1, 1))
    (bn1): BatchNorm2d(23, eps=1e-05, momentum=0.1, affine=True, track_running_stats=True)
    (conv2): Conv2d(23, 15, kernel_size=(3, 3), stride=(1, 1), padding=(1, 1))
    (bn2): BatchNorm2d(15, eps=1e-05, momentum=0.1, affine=True, track_running_stats=True)
  )
  (conv1_3): VGGBlock(
    (relu): ReLU(inplace=True)
    (conv1): Conv2d(50, 6, kernel_size=(3, 3), stride=(1, 1), padding=(1, 1))
    (bn1): BatchNorm2d(6, eps=1e-05, momentum=0.1, affine=True, track_running_stats=True)
    (conv2): Conv2d(6, 15, kernel_size=(3, 3), stride=(1, 1), padding=(1, 1))
    (bn2): BatchNorm2d(15, eps=1e-05, momentum=0.1, affine=True, track_running_stats=True)
  )
  (conv0_4): VGGBlock(
    (relu): ReLU(inplace=True)
    (conv1): Conv2d(75, 30, kernel_size=(3, 3), stride=(1, 1), padding=(1, 1))
    (bn1): BatchNorm2d(30, eps=1e-05, momentum=0.1, affine=True, track_running_stats=True)
    (conv2): Conv2d(30, 28, kernel_size=(3, 3), stride=(1, 1), padding=(1, 1))
    (bn2): BatchNorm2d(28, eps=1e-05, momentum=0.1, affine=True, track_running_stats=True)
  )
  (final): Conv2d(28, 1, kernel_size=(1, 1), stride=(1, 1))
)
Epoch [0/400]
loss 0.1320 - iou 0.8601 - val_loss 0.7442 - val_iou 0.3684
=> saved best model
Epoch [1/400]
loss 0.1166 - iou 0.8737 - val_loss 0.4678 - val_iou 0.5524
=> saved best model
Epoch [2/400]
loss 0.1102 - iou 0.8819 - val_loss 0.1800 - val_iou 0.8091
=> saved best model
Epoch [3/400]
loss 0.1176 - iou 0.8731 - val_loss 0.5579 - val_iou 0.5108
Epoch [4/400]
…
